services/server/assets/lanet5.pt (torch, 250263 bytes, 10 tensors)

conv1.weight f4 [6, 1, 5, 5]
00000000: 1125 b73e a93a b73e d0fd be3e 6157 633e
00000010: 8143 9a3e fa5d 1cbe 88a8 543e 6f73 513d
00000020: afc8 383e 0aa2 01bd ff8d b3be c3b5 b8be
00000030: 4b93 dcbe b157 bdbe 7dff bebe 6edb ddbe
00000040: 929e d8be 3596 9cbe 6a78 e3be e14d a3be
00000050: a765 bebe 2e53 e5be 8476 fcbe 8d99 b3be
00000060: 7701 89be 7c74 7bbe 48a6 283e 2019 af3e
00000070: 2c03 243e 96c4 88be a3df 49be 1386 173d
00000080: ce53 f53e dba2 a3bd 023c 10be 4c74 603d
00000090: c384 f93e 3b96 df3e 7697 4fbe 0548 16be
000000a0: 3db2 8b3e 80f6 753e 0ccd eebc c4c2 7dbd
000000b0: afa6 94be f381 c43d 53d2 953d 6c74 28bd
000000c0: 5300 aabe 0b4d e9be 271a 88bc 464a 89be
000000d0: 45e9 3ebe 2c5b c5bd f753 dabc 6c05 6bbd
000000e0: 15a5 a2be ff49 84be e618 9bbd 11a1 473d
000000f0: 84cb abbe 93b5 b2be 95fc 99bd 9be2 e03d
00000100: c8bf 263e 1837 323c 3c79 86bd de8b 253e
00000110: b37c 723e 0668 fd3e 428e 39bd 10ae a13e
00000120: 1392 983d 872a 9f3e cde2 fa3e ee3f 36be
00000130: 3e7a 62bd c4ef 753e 9106 c33e e61a 843e
00000140: b451 93be f650 2d3d 7725 423e f217 913e
00000150: 7524 16be 78a7 7cbe 336c fa3d f101 fe3c
00000160: b93d 9f3e c0df e93d 060f 21be 81ff 163e
00000170: 6ab8 223e 0111 733e 8229 60be 0034 eabd
00000180: 3229 173e 600a 6e3e 6b2a e23d 586a 92be
00000190: 9fb1 893d 765e 5f3e 10c0 59be 999c c9bd
000001a0: 6acc 173e d548 443e bf57 3ebe 6646 363d
000001b0: ba0b c5bd 6503 39be 4935 1c3c a3d8 6abe
000001c0: ad21 6cbe 60c9 97be fd4d 2cbe 23be a2bd
000001d0: 1473 95bc 661a 31be 79ae eebb fcf6 84be
000001e0: dddd 86be 89db bbbd f62a 8cbe aff4 96be
000001f0: fba0 40be 675b c3bc 32c4 a0be 3c9c 04be
00000200: 97df 14be 13b0 0e3d 267e 88be 2016 d23d
00000210: 05c0 083e 46e2 a53e b27d 7d3e 67d7 933d
00000220: 671c 973e 00b6 cb3e 64a4 473e 0fe6 113e
00000230: d942 a93e b147 013e fd20 7bbe 7a86 d8bd
00000240: fa4d 6fbd 7565 2bbe eb57 2dbe 174e 8ebe
00000250: 70ac 0fbe 0cca 8bbe
0.35770467 0.35786942 0.3730302 0.22201301 0.30129626 -0.15270224 0.20767415 0.051135477
0.18045305 -0.031648673 -0.35069272 -0.36076173 -0.43081126 -0.36980966 -0.37304297 -0.43331474
-0.4230848 -0.3058335 -0.44427806 -0.31895354 -0.3718693 -0.44790024 -0.4930917 -0.35078087
-0.2675893 -0.24556154 0.16469681 0.34198856 0.16016835 -0.26712483 -0.19714217 0.036993098
0.479155 -0.079900466 -0.14085391 0.05479841 0.48734102 0.43669304 -0.20272622 -0.14675911
0.27284423 0.24019814 -0.029150508 -0.06195332 -0.2903342 0.09595098 0.07315507 -0.041126654
-0.33203372 -0.45566592 -0.016614033 -0.2681448 -0.18643673 -0.0963653 -0.026651366 -0.057378218
-0.31766573 -0.25837705 -0.075731084 0.04873759 -0.33553708 -0.34904155 -0.07518879 0.109807216
0.16284096 0.010877393 -0.06566092 0.16166636 0.23680381 0.49493426 -0.045301683 0.31578112
0.074497364 0.31087133 0.4900116 -0.17797825 -0.05529236 0.24017245 0.38090947 0.25801772
-0.28773272 0.04231354 0.18959604 0.2833858 -0.14662345 -0.2467326 0.122276686 0.031006785
0.31101778 0.1141963 -0.15728387 0.14745905 0.15890661 0.23736955 -0.21890834 -0.114356995
0.14761809 0.23246145 0.11043247 -0.2859676 0.06723332 0.21813378 -0.21264672 -0.09844322
0.14824072 0.19168408 -0.1858816 0.04450073 -0.09621377 -0.18067701 0.009534189 -0.22934203
-0.23059721 -0.29645824 -0.16826625 -0.07946422 -0.01824335 -0.17295226 -0.0072839824 -0.25969684
-0.26341143 -0.091727324 -0.27376527 -0.29483554 -0.18811409 -0.023847295 -0.31399685 -0.12950224
-0.14538418 0.034835886 -0.26658744 0.10258126 0.133545 0.32399195 0.2475498 0.07218819
0.29513857 0.39787292 0.19496304 0.14247917 0.33058813 0.12625004 -0.24524303 -0.10572524
-0.058423974 -0.16737922 -0.1692807 -0.27793953 -0.14030623 -0.27302587

conv1.bias f4 [6]
00000000: 4719 7a3c ae70 b53e c8d0 843e 9e5b bc3e
00000010: 35c9 f4bd 9fb6 0f3e
0.015264816 0.3543753 0.25940537 0.36788648 -0.1195244 0.14034508

conv2.weight f4 [16, 6, 5, 5]
00000000: 46bc 973d a420 acbb 4243 c83d 1d58 083d
00000010: a34f 56bc 1684 51bd ae0b 773d 558f 103b
00000020: ebbd 93bd 878f 793d 7a2a fcbc be89 b0bd
00000030: 34fd 91bd d6b0 45bc fd86 143d 178d 4f3d
00000040: c3f9 80bd 58c2 94bc 4b71 17bd 79f1 a93b
00000050: e0bc c23c 7ff8 a3bd 2641 6cbd f625 73bc
00000060: d6ea b73d 8c85 70bd 2c08 b03c 9549 febc
00000070: e087 82bd dd07 393c 493f 653c 6320 8fbc
00000080: f363 f73a 71fe a8bd 51b1 a83d 0ffb 71bc
00000090: a647 483c 787b 66bd ef1d 113d b3e3 35bd
000000a0: d8fe 6dbd c3c5 7dbd f4e0 19bd 577a 19bd
000000b0: 3564 433c 0478 58bd 3d87 72bc 71eb 603d
000000c0: df34 c43d 4025 b9bc 8855 97bc e3c7 42bd
000000d0: 7449 a93d 728c dd3c f30a 94bd b62c e23d
000000e0: 4ad8 bc3d 4796 3d3d ce2f 94bd b009 64bd
000000f0: 64a8 0dbd 1c4a 3e3d 5747 b6bc d716 673d
00000100: 31b4 743d ca6b 23bd 7bde f9bc 6bd8 853c
00000110: c48e be3c e98a 99bb 3949 733d f6c4 dfbc
00000120: dc4e 923d d779 65bd d31f c1bb 071c 8ebc
00000130: 0712 a7bd 2642 753d b2f9 593c 2d4a bebc
00000140: 914d 2cbd e39e 20bd 0490 65bd 4bc8 8bbc
00000150: cd2a babc 6d18 d03b 7e52 35bd 165c 193d
00000160: b07f 4fbd a384 7c39 f05f 803d 1045 b33d
00000170: 938b 3e3d e53a d6bc fc86 483d a405 983c
00000180: fb31 54bd f96b 74bd 5102 413d 630f f9bc
00000190: b693 3cbd 864b 89bb e73f 3cbd 0175 043d
000001a0: 6bb7 233d 534a 813d b806 78bd 8995 ab3b
000001b0: 7120 9b3b c1a9 813d aba9 373d 849f f0bb
000001c0: 496f 12bd 41cc 96bd 0c07 d2bc 33cd b43c
000001d0: 0bba b3bc 12e2 0cbc 167e acbd 5e85 b0bb
000001e0: 64c1 e0bb 9cd4 233d b212 303d 2776 91bb
000001f0: a40c 23bd 9ee9 49bd 8204 f0bc 1c5b 35bd
00000200: 088b a6bc b654 9c3c ccfc 893d 32c9 83bd
00000210: e330 48bc 6075 40bd 1f28 b1bc a4b7 333d
00000220: 9e1e b03c 20ce 5ebd 413b 02bd 7add 0b3d
00000230: e72d d53d 79db 9e3d 5854 873d b8a1 cc3c
00000240: fbd0 1abd d716 5abd 1631 47bd fdd6 6e3d
00000250: f251 1c3c e652 8d3c 4792 bb3d 7387 dc3d
00000260: 290a a13d 7b98 453d c213 a6bd 3b74 e43b
00000270: 4a0c c03d f1bc 983d b3f6 cbbd b626 4cbe
00000280: 91e6 283d 3d27 f53b f948 24bd 8d85 39be
00000290: 1301 05be f564 b53c d0d3 d0bc d4c5 a8bd
000002a0: 07b3 21bd fc90 bb3a b7c0 9b3d 66f4 1ebd
000002b0: 1250 8f3b dc7a 80bc e89d 67bd c85e 02bd
000002c0: 8b48 ddbd d2fb 6fbd 8041 8f3d c9e9 093e
000002d0: 1120 74bb 591a aabd 765e 06be 3121 df3d
000002e0: 63d4 293e 9d14 853c b100 a5bd 14f3 d7bd
000002f0: 3084 4b3e 7d54 c93d 216e c03d 8cae d9bd
00000300: 4f75 43bb 8130 103e ca8e ad3d 6581 cf3c
00000310: 2d2e b0bc 78d6 6fbc e4ba bd3d 5e75 14bd
00000320: 57a4 bbbd 7ae4 eebc e43c 893d 1242 9d3d
00000330: 47e8 803d 26a1 cd3c f796 b7bd a683 403e
00000340: 15be 2e3e a3b4 88bc 7434 b7bd 25f9 97bc
00000350: 63d0 be3d 0546 333e 6cdb c9bd ec4c 633d
00000360: 45f4 0e3c ff96 0b3e f020 433d 2934 4ebd
00000370: 8b55 3f3d c6d1 033d 3d93 49bc c3fc a13d
00000380: 2fb3 f6bd 7cf6 4cbd f5c9 2cbd 95a9 1ebd
00000390: 30bb 363d c82f 263e 801b 49bd dcb0 c93c
000003a0: 9580 613d d192 133e 4860 b73d 1001 46bd
000003b0: 9fb6 82bd 1c18 ca3d d81e 2a3e e59a ff3d
000003c0: aeab 56bb cb34 8f3c aec5 3f3d 4da9 0c3e
000003d0: 2b69 6f3d 26c5 75bd 5fb8 d7bc ec97 9a3d
000003e0: 534c 7a3d aa37 7aba e805 553d ae5f bf3d
000003f0: 6423 e2bc 4742 81bd 8035 40bd 48d4 de3d
0.07408957 -0.0052529145 0.097784534 0.033287156 -0.01308051 -0.051151358 0.060313873 0.0022058089
-0.07213958 0.060927894 -0.030781973 -0.08620022 -0.07128373 -0.012066087 0.036261547 0.050671663
-0.06297638 -0.018159077 -0.03697328 0.0051862565 0.023771703 -0.08006381 -0.057679318 -0.014840594
0.08980338 -0.05872111 0.021488272 -0.031040946 -0.06373572 0.011293379 0.013992139 -0.017471498
0.0018874392 -0.08251656 0.082369454 -0.01476933 0.012224114 -0.056270093 0.035428938 -0.044406604
-0.058104366 -0.06195618 -0.037568048 -0.037470188 0.011925747 -0.05284883 -0.014802751 0.054912034
0.09580397 -0.02260077 -0.018473402 -0.047553908 0.08265963 0.027044509 -0.07228651 0.11043684
0.09220941 0.046285894 -0.072356805 -0.0556733 -0.034584418 0.046457395 -0.022250814 0.056418266
0.059742156 -0.039897718 -0.030501595 0.016338548 0.023261435 -0.004685749 0.059396002 -0.027315598
0.071439475 -0.0560244 -0.0058936863 -0.017347349 -0.08157735 0.059877537 0.013304161 -0.02322873
-0.04206616 -0.039214026 -0.056045547 -0.01706328 -0.022725487 0.006350568 -0.044268124 0.037441336
-0.05065888 0.00024082004 0.062682986 0.08753407 0.046519827 -0.02615113 0.048956856 0.018557377
-0.051805478 -0.059673283 0.04712135 -0.030402845 -0.046039306 -0.0041899113 -0.04595938 0.032338146
0.039969843 0.06313004 -0.060553282 0.005236332 0.004734092 0.06331206 0.044839542 -0.0073432345
-0.03575066 -0.07363177 -0.025638126 0.022070503 -0.021939298 -0.008598821 -0.084224865 -0.0053869924
-0.0068589915 0.039997682 0.04298658 -0.0044391337 -0.039806977 -0.04929506 -0.029299024 -0.04427634
-0.020329967 0.019083362 0.0673767 -0.06434859 -0.012218687 -0.046986938 -0.021625577 0.043876305
0.021498974 -0.054395795 -0.03179479 0.034146763 0.10409146 0.07756705 0.06607884 0.024979457
-0.037796956 -0.053244438 -0.048630796 0.058310498 0.009541022 0.017251443 0.091587596 0.107680224
0.07863266 0.04824112 -0.08109237 0.0069718636 0.09377344 0.07457913 -0.099591635 -0.19936642
0.04123551 0.007481484 -0.040108655 -0.18117352 -0.12988691 0.022142867 -0.025491625 -0.08240858
-0.039477374 0.0014310176 0.07605117 -0.038807295 0.004373559 -0.015683584 -0.056547076 -0.03182867
-0.10804852 -0.058589764 0.06994915 0.13468088 -0.0037250558 -0.08305807 -0.13121971 0.10895003
0.16584925 0.01624518 -0.080567725 -0.1054441 0.19874644 0.09830568 0.093960054 -0.10628995
-0.002982456 0.14081003 0.084745005 0.025330255 -0.021506393 -0.014638536 0.09264162 -0.036244743
-0.09162205 -0.02916168 0.06701067 0.076786175 0.062943034 0.025101256 -0.08964341 0.1880022
0.17064698 -0.016687697 -0.089455515 -0.018551419 0.0931709 0.17507179 -0.098563045 0.05549328
0.008725231 0.13631819 0.047638834 -0.050342713 0.04671244 0.032182477 -0.012303171 0.079095386
-0.12045895 -0.050039753 -0.04218479 -0.038735945 0.04461211 0.16229165 -0.04909849 0.024620466
0.055054266 0.14411475 0.08953911 -0.048340857 -0.063824885 0.0986788 0.16613328 0.12480716
-0.0032756138 0.017481228 0.04681938 0.13736458 0.058449905 -0.06000247 -0.026333032 0.07548508
0.061107945 -0.0009545038 0.052007586 0.09344421 -0.027604766 -0.063114695 -0.04692602 0.10880333

conv2.bias f4 [16]
00000000: 0882 0a3c 3c7c 97bd 160b 1cbd 0d62 1fbd
00000010: cd0d 61bb 89cc e2bc 3aec c23b 5eb3 4b3d
00000020: 6c6f 343c ad46 a43d 3677 723d f4e5 82bd
00000030: 70cd 373d cff8 503d 734d 17bd 1d24 743d
0.008453853 -0.07396743 -0.03809651 -0.038911868 -0.0034340501 -0.02768542 0.0059485706 0.049731605
0.011012893 0.08021293 0.05919572 -0.06391516 0.044873655 0.051018532 -0.036939096 0.059604753

conv3.weight f4 [120, 16, 5, 5]
00000000: d62a 223d c308 acbc 255f debc 6580 17bd
00000010: c6a3 0a3d 9f21 273d 27b0 8aba 21e8 48bd
00000020: b371 493c d849 403d cfe9 29bc 47fe 98bb
00000030: 77de a2bc cbde c7bc 5fb5 c3bc 7bfb 153d
00000040: 747d 923c bccd 95bc 70c3 ee3b 1a33 353d
00000050: 5cd2 9f3a f4c4 32bc e299 073d 813b ee3c
00000060: f576 ad3b 4846 ea3c efb7 6d3d 44c8 a6bb
00000070: 8261 4cbd 1e47 293d 8ad8 a23c 9519 103d
00000080: 480f 0cbd fb13 0f3d 9789 433d 6d5a 11bd
00000090: 4506 40bd 63e0 573d e926 5939 6fdb 4bbc
000000a0: c228 6a3d b207 f7bc 1a10 6ebc d1a9 453d
000000b0: 013c 2c3d d27a 78b9 a1c9 41bd c06e 923c
000000c0: cc09 2c3d 107b 2ebd e221 e7b8 94f8 5c3d
000000d0: 2b53 473d 690b 0bbd 08b2 e3bc 6f12 8dbd
000000e0: 1165 df3c 801c 01bd 638f 433c 6119 46bd
000000f0: 157e c6bc 80a9 c2bc a298 f8bc a84f 1b3d
00000100: 9978 e4bc 7508 ea3c 390d 13bd 7a37 13bc
00000110: 0361 663d ca2f 433d ca97 d0bb 9bc6 6d3c
00000120: c1d2 803b f850 bebb b1c4 0c3d fda1 4cbc
00000130: be15 2f3d b580 22bd 60df 463c f485 1a3b
00000140: be0e 913c 1b7f 0f3d 32ad 073d bbbc 8fbc
00000150: e81c a03b 3f40 3fbd 2df8 20bb 5560 d03b
00000160: ef6d 563c 1e51 203c 1052 34bd 0e70 09bd
00000170: f992 f8bc 47d5 803c 3b6d b23c 3cd2 2ebb
00000180: d93c 2cbc c785 b4bc afbf cdbc f800 70bc
00000190: 9f22 063d 6472 a5bc 567e 9fbc 995e 1b3c
000001a0: 8f55 253d 646e b33c 3391 2fbd 9bdf 7ebc
000001b0: 2a16 87bc a7c8 f83c 6e92 4f3c 7216 ae3b
000001c0: 97be 2cbd 635e 3f3c ded3 04bd 2b36 ec3c
000001d0: 00db febc c7d8 98b9 3e20 103c 14f1 46bc
000001e0: 9096 663b 05fc 55bd b77c 68bb ee14 8abc
000001f0: ec03 503d 4e96 3dbd 957f 633b 84fd 863c
00000200: 77b3 523c 3c00 453c cbab 0c3d 1f7a 4b3b
00000210: bdbd 1a3d ae3b af3c 00ca bf3c 7574 41bd
00000220: e962 623d cd80 3ebd 664a d0bc acf7 42bd
00000230: cb99 433d fbf9 973c 6441 093b f03b 0a3d
00000240: cbd8 183d acf4 01bd 48eb e73b bd70 c13c
00000250: 94d5 b83c 763e f9bc fca2 f33c d33d 1b3d
00000260: 6ae8 493d 4512 dfbc ba8b bc3c 3956 a13b
00000270: d078 f3ba cd3c 00bd c152 48bb e399 61bc
00000280: b5a5 1fbd 3872 23bd e73e 213d a22f 4e3c
00000290: a05a e63c b54b 38bc 332e ecbb 33bb 2b3d
000002a0: 03cc c4bc 60e3 143d 8295 eabc 8775 b33b
000002b0: 0352 bcbc 8c1d f8bc d9ad 86bc 5523 1ebd
000002c0: 29a5 87bc 11b7 143a 51ff c43c c7b5 063a
000002d0: e779 19bc 4acd dbbc 0692 0c3d bb49 a7bc
000002e0: 0bb0 b8ba c887 2bbc c222 d7bc 3355 b1bc
000002f0: bb96 92bc b88c 473d dc18 97bc 4a6a 9b3c
00000300: c6db 22bd df35 5b3d 9baa 6cba 0a77 0cbd
00000310: 8160 ecbb 96b7 583d 0403 e93c 830e c8bc
00000320: 3eff 543d 8853 a6bc e862 b4bc 81b8 813c
00000330: 6323 dfbc f978 223d aed8 0f3d cba2 94bc
00000340: 9efa 913b 2c39 2c3d fd1a da3c 9727 203d
00000350: f40b 8f3b 0f13 823c 202c 0ebd 1691 74b9
00000360: 07bc 6cbc 249b 073c 0995 d13c 7325 da3b
00000370: c3de 1e3d 1fea 8bbb 2049 b8bc 406b 4abd
00000380: 18f2 39bc 72eb 34bd ed7e bf3b d9cc 033d
00000390: 1343 9cbc 0bb5 113d 9928 253d d341 883a
000003a0: 25f8 eabc 84b9 c2bc 8e67 3abd f107 22bd
000003b0: dd8b 12bd c62f 22bd 336f 1c3d 8c7f 05bb
000003c0: f91c 143d 6713 e73b dec7 00bd 69f9 debb
000003d0: a6fb 923c d14c 6b3d a67d bfba d390 13bb
000003e0: 11b6 27bc d5ee 113d e5ac 693b 7be1 23bc
000003f0: 3ea0 293d f1d2 90bc b0e5 8ebc 5f01 3b3d
0.039591633 -0.021000272 -0.027144978 -0.03698768 0.033847593 0.040803548 -0.0010581062 -0.0490495
0.012295174 0.046945423 -0.010370686 -0.004668984 -0.01988147 -0.024398228 -0.023890195 0.036616784
0.017882086 -0.018286578 0.0072864816 0.044238187 0.0012193429 -0.010911215 0.03310574 0.029081108
0.005293722 0.028597966 0.05803674 -0.0050897915 -0.04989768 0.04132759 0.019878644 0.035180647
-0.03419426 0.034931164 0.047738638 -0.035486627 -0.04688098 0.052704226 0.00020709228 -0.012442454
0.057167776 -0.030155037 -0.014530206 0.048257653 0.04204941 -0.00023696877 -0.04731143 0.017875075
0.04200153 -0.04259783 -0.000110212495 0.053948 0.0486633 -0.03394643 -0.027794853 -0.068882816
0.027269872 -0.03152132 0.0119360415 -0.048364047 -0.024230042 -0.023762465 -0.030346218 0.037917763
-0.027889537 0.028568486 -0.035901282 -0.008985395 0.05624486 0.047652997 -0.006365751 0.014512683
0.003931374 -0.005807992 0.034367267 -0.012489793 0.042745344 -0.039673526 0.012138218 0.0023578377
0.017707225 0.035033327 0.033124156 -0.017546048 0.0048862584 -0.04669213 -0.0024561987 0.00635914
0.013087734 0.009784965 -0.044023573 -0.03355413 -0.03034352 0.015726699 0.0217806 -0.0026675602
-0.010512554 -0.022036446 -0.025115816 -0.0146486685 0.03274786 -0.020196147 -0.019469421 0.009483003
0.0403648 0.021903224 -0.042863082 -0.015556241 -0.01649006 0.030369116 0.012669189 0.0053127343
-0.04217395 0.011680218 -0.032428615 0.028834423 -0.031110287 -0.0002915321 0.00879675 -0.012142438
0.0035184957 -0.052242298 -0.0035474726 -0.016855683 0.05078499 -0.04628592 0.0034713496 0.016478308
0.012860171 0.012023982 0.034343522 0.0031048132 0.037778605 0.021390762 0.02341175 -0.047230203
0.05527011 -0.046509553 -0.025426101 -0.04759948 0.04775409 0.018551817 0.0020943517 0.033748567
0.037316125 -0.031727478 0.0070776083 0.023613328 0.02256278 -0.030425292 0.029740803 0.037900757
0.049293913 -0.027230391 0.023015846 0.0049236086 -0.0018575434 -0.031307984 -0.0030566903 -0.0137696
-0.03897639 -0.03990385 0.03936663 0.012584599 0.028119385 -0.011248519 -0.007207656 0.041926574
-0.024023062 0.036349654 -0.028635744 0.005476657 -0.022988325 -0.030287527 -0.016440319 -0.038607914
-0.016558247 0.0005673031 0.024047526 0.0005138781 -0.009367443 -0.026831288 0.034318946 -0.0204209
-0.0014090551 -0.0104693845 -0.026261691 -0.021647071 -0.01789414 0.048718184 -0.018444471 0.018971581
-0.039760374 0.053518172 -0.0009028108 -0.034293212 -0.0072136526 0.052909456 0.02844382 -0.024420982
0.05200123 -0.020303503 -0.022019818 0.015835049 -0.027238553 0.03966615 0.03511875 -0.018144032
0.0044549247 0.04204671 0.026624197 0.039100256 0.0043654386 0.015878228 -0.03471005 -0.00023323702
-0.014449126 0.0082767345 0.02558376 0.0066572963 0.03878666 -0.004269853 -0.022495806 -0.049418688
-0.011349224 -0.04416985 0.005843988 0.03217778 -0.019074952 0.035573047 0.04032192 0.0010395594
-0.028682778 -0.023770101 -0.045508914 -0.039558355 -0.035777915 -0.03959634 0.038191985 -0.0020370213
0.036160443 0.0070518735 -0.03144061 -0.0068046344 0.017942261 0.057446305 -0.001460959 -0.0022516742
-0.010236279 0.03562816 0.0035656032 -0.010002489 0.041412584 -0.01767871 -0.017443508 0.045655604

conv3.bias f4 [120]
00000000: cba9 383c bfa4 15bd dd85 26bd f230 27bd
00000010: dfba 36bd 77c9 cd3c 34b3 19bd c412 19bd
00000020: 8890 403d 51d7 b83a a6b1 cfbb 9b93 01bc
00000030: dfcf 173d 3c90 88bc f1f6 703d 7c96 633c
00000040: 9ab7 be3c a012 643d b8ea 9dbc 0685 13bd
00000050: 6934 be3b ad82 30bd e923 273d 1ff9 dabc
00000060: 5fa2 693c 0872 e23b b0ac 2bbd 1dd7 f03b
00000070: 67f6 fb3c 00c1 2abd ca31 76bb 8ad8 f4bc
00000080: 4ef0 63bc 7ce2 623c 5079 e8bc 1c62 d13c
00000090: 7d88 7e3a 9337 9abc 60d5 5dbc 0654 febc
000000a0: 35f2 cebb 7e4f fc3c e8b6 ca3c 2758 7ebc
000000b0: 80d9 d03c 9010 193d e7c1 483d 6424 fd3c
000000c0: c980 a33c 0b84 25bd cc68 dd3b 820f 1c3d
000000d0: 16e9 413d 1696 a73b 3521 27bc 1675 173d
000000e0: 7dea 103d 4ec5 093c d3e1 1e3d 279f 3b3d
000000f0: a4f2 93bc e205 94bc e157 d3bb 9535 15bd
00000100: 82d2 02bd 4f0c 0abd b990 f2bc d777 7b3b
00000110: 4402 2c3d f4ff 2bbb d92b aabc 0fb1 1bbd
00000120: 794d 893c 7c02 003d 4b1f 393d 174d 363d
00000130: 2321 213b 3082 68bc a1f5 babb 8ecd 14bd
00000140: 6329 5bbd 7da5 af3c 0170 4d3d db3e 24bd
00000150: 2f03 693b 1b4c 6e3c 1ad6 a4bc 0a9b 06bd
00000160: cad7 f0bb ce66 0cbd f4b7 273c 016e 1b3d
00000170: 4dda 1e3d 3d11 41bd b8fa 96bc f6cc 05bb
00000180: bf33 f53c ae41 423d a4a3 18bc 318d 213c
00000190: a43a 01bd 06f4 0bbc fb82 303d a608 48bd
000001a0: 2cc6 d63b cb70 f43c cee5 3f3d b99d a03b
000001b0: 7b28 05bd 4042 2c3d 99ed b9bc ebab c13c
000001c0: cf28 24bc 5ce1 3bbd 65fc ed3c 1729 9c3c
000001d0: f743 59bd 671c 143d 1a49 6fbc 9aec 2bbb
0.011270951 -0.036534067 -0.040655006 -0.040818162 -0.044611808 0.02512048 -0.037524417 -0.037371412
0.047012836 0.0014102255 -0.006338316 -0.007908727 0.037063476 -0.016670339 0.05882925 0.013890859
0.023280907 0.055681825 -0.019276962 -0.036015533 0.0058045876 -0.043093372 0.04080573 -0.026730118
0.014259904 0.0069105662 -0.041912735 0.0073498623 0.030757142 -0.041687965 -0.0037566298 -0.02988841
-0.013912274 0.013847943 -0.028378159 0.025559478 0.00097096694 -0.018825328 -0.013539642 -0.031045925
-0.0063154944 0.030799624 0.02474542 -0.015523947 0.025494337 0.03736931 0.049013045 0.030901141
0.01995887 -0.04040913 0.0067568775 0.038100727 0.04734143 0.005114327 -0.010200788 0.036976896
0.035379875 0.0084088575 0.03878958 0.045806076 -0.018060036 -0.018069211 -0.006449685 -0.036428053
-0.031939037 -0.033703145 -0.029610025 0.003837099 0.04199435 -0.002624509 -0.020772861 -0.038010653
0.016760575 0.03125237 0.04519586 0.044507112 0.0024586401 -0.014191195 -0.005705551 -0.036328845
-0.053506266 0.021441216 0.050155643 -0.040099006 0.0035554876 0.014544512 -0.020121623 -0.0328627
-0.007349943 -0.03427773 0.010236729 0.037946705 0.038782407 -0.04713558 -0.018430099 -0.0020416356
0.029931901 0.04742592 -0.009316359 0.009860323 -0.031550065 -0.008542066 0.043093663 -0.048836373
0.0065543856 0.02983894 0.04685002 0.0049016145 -0.03250931 0.04205537 -0.022696303 0.023641547
-0.010019495 -0.045869216 0.029051015 0.019062562 -0.053043332 0.0361599 -0.014604831 -0.0026233555

lin1.weight f4 [84, 120]
00000000: 4ece e5bc ad0e c8bd 2c81 8ebd 3f1f 9ebc
00000010: f0fc 083c 85ad 173d 394b 39bc 5d78 a03c
00000020: c0a1 fdbb 0edf 26bd 62da 9abd 2707 c43d
00000030: e3ad 343c 2150 5cbd 9079 9fbd 46c7 f63d
00000040: 2e32 67bd 7c94 773d 8cb7 48bd 364c 58bd
00000050: d3ad 86bd 19fe 1ebd 3377 c83d 0257 0f3c
00000060: 757d 37ba 3e07 073d 6d62 8b3d 0969 1a3d
00000070: cad8 a1bd b39f 753d d1d8 3f3d 4471 c53d
00000080: 7b80 853d 722f 12bd da02 7a3d 445c a53c
00000090: 36ab 663c db6d 62bc ac6e 8fbd e67f 80bc
000000a0: aab9 453d f7a8 27bd f391 bf3c 115a eabc
000000b0: 9dcd 20bd 2351 843d 0cde cf3d 85b7 4fbd
000000c0: 0375 d63d b486 93bc f13f 733d d650 013c
000000d0: 058a c03d 39c8 94bc ad35 ed3d c456 e53d
000000e0: 8051 bd3d 3d83 df3c 755c a0bd a266 94bd
000000f0: 05bb bbbd 322b a4bd f789 7b3d 829b 32bd
00000100: 9814 ac3d ba50 e83c 16a2 b5bd 816e 493d
00000110: b61b 90bc cc3a ae3c 63ab de3c ba28 983d
00000120: 2d04 f53b c284 98ba f94d 22bc 60fb 193d
00000130: f374 943d 4f7c 1c3d b89b c03c 6f1e ab3d
00000140: 45cf b83d 7b66 a5bd e727 22bc 8b9e 90bc
00000150: 1f4c eebc b39d 97bd ad85 b8bc 2dea 153d
00000160: f43c 15bd 7cd9 023c 0fc0 47bd dbd0 9f3d
00000170: bca4 463c 294e a1bd 5736 f43d adac b4bd
00000180: 2bce bb3d 5296 1a3d 1cae 7b3d 5634 90bb
00000190: d926 c7bd 7f13 c53d 6487 8b3d b7cb 223d
000001a0: 3809 0a3d d1d5 63bd 85b2 93bd 8e32 acbd
000001b0: 567c af3d bd3d 48bd 203b cd3c b1a8 18be
000001c0: d837 8cbc 9e34 b73b 2c8c a03d 69f5 1b3d
000001d0: 753a 6f3d c3f6 dc3d 4ab6 0bbc 8777 9cbc
000001e0: 7771 a5ba d3d5 0c3d d297 bcbd 784e 863c
000001f0: 3899 0dbd 65f5 9c3c 7880 413d 6432 bfbb
00000200: 13bc c8bd a4a8 48bd 54be 873c 32dd d53c
00000210: ed0b e23b 7d60 9cbd a265 31bd 3854 e13c
00000220: a593 843d 6466 cabc 38e7 6ebd 0ab7 9cbc
00000230: ebbb b53d 6663 513d 9cd2 8cbd a6a3 51bd
00000240: fa1d 2f3d 12df 683d 09b7 90bd a45d 703b
00000250: 4899 583d b08c 903d 265f 5a3c 03fb 0dbd
00000260: 3a6c 5d3d 97bb acbc 659a 0c3d 1fca a4bd
00000270: 1246 38bc 4b18 49bd 3372 a63d cfd2 c23c
00000280: aab9 f93a 5edb 2dbc cf73 643d 0e0c 9e3d
00000290: a449 56bd f717 2d3d 9eee 19bd 7d74 8abb
000002a0: 282a 1d3c d5da 443d 92f7 4fbd 5563 a0bd
000002b0: 20bd af3c 3528 9b3d 9550 943c 03b2 a5bd
000002c0: a94b 32bd d88a 5e3c 4b26 a2bd ae00 05bd
000002d0: f8f4 093c cee9 26bc 7282 a2bd 234d 2f3c
000002e0: 71ab abbd 3cc7 39bd 8896 7c3d b0b3 623d
000002f0: cdf8 af3b 9272 b4bd 700e 6ebd 3c5d a8bd
00000300: cd79 90bd 1419 b1bd 4559 433d c984 7e3c
00000310: 7a2e c93c 151e 893d 9e22 063c ee06 34bc
00000320: e4f6 76bd 6053 2c3d 1742 19bd 961f 403d
00000330: c9ee 0ebd 932a 43bd ce54 013d e121 aabd
00000340: 6401 a6bd bf01 7dbd baad b43c ff50 a8bd
00000350: 2daa 86bd c001 203d dbfc 973d fd4a c83c
00000360: 78e0 b2bd 0cd7 f83c 0dd6 b1bd 59c3 813c
00000370: e1a8 533d b7a4 5cbd 05b6 383d 9230 a03d
00000380: d787 a23c b806 7ebd 4706 13bc c51d 673d
00000390: b3d9 a0bd c031 543b bec4 d63c 9926 1ebd
000003a0: e97b 47bb 449e 2b3d 9558 0dbd 8bcc 833c
000003b0: 6829 2fbc 874b 5a3d 45a7 883d 0d2a 623d
000003c0: d45e 743d 206f 52bd 8255 1ebd 6cf6 863d
000003d0: 8e28 6f3c f236 c23c 2b16 813d bfb6 763b
000003e0: 3536 a3bb 051a 18be b937 153d ea54 e2bd
000003f0: dbfb 7abc 6a24 83bd 6cd5 84bb 5cb7 b1bc
-0.028052475 -0.09768424 -0.06958231 -0.019302009 0.008361086 0.037030715 -0.011309438 0.019588644
-0.0077402294 -0.040740065 -0.075611845 0.09571677 0.011027786 -0.053787354 -0.07786858 0.12049727
-0.05644434 0.06044434 -0.04900317 -0.052807055 -0.06576123 -0.038816545 0.097883604 0.008748772
-0.00069995906 0.03296589 0.068058826 0.037697826 -0.07902677 0.059966754 0.04683763 0.09640744
0.06518646 -0.03568978 0.061037876 0.020185597 0.014078906 -0.013820137 -0.07003531 -0.015685987
0.048272766 -0.04093262 0.023385024 -0.0286074 -0.039258588 0.06460788 0.10149774 -0.050712127
0.10471537 -0.018008567 0.05938715 0.007892808 0.09401325 -0.01816188 0.115825035 0.1119819
0.092440605 0.027284259 -0.07830135 -0.07246138 -0.091665305 -0.08016051 0.06141087 -0.043605335
0.084023654 0.028358806 -0.08868806 0.04917765 -0.017591339 0.02126827 0.027181333 0.07429643
0.0074773044 -0.0011636245 -0.009906285 0.037593246 0.07248869 0.038204487 0.023511752 0.08355414
0.090239085 -0.08076187 -0.009897209 -0.017653724 -0.029089032 -0.074031256 -0.02252468 0.03660028
-0.036435083 0.007986423 -0.048767146 0.07803508 0.012124237 -0.07876236 0.11924427 -0.08821998
0.09170183 0.037741013 0.06144534 -0.00440077 -0.097242065 0.09622859 0.06812933 0.03974506
0.033700198 -0.055623833 -0.07211784 -0.0840808 0.08568637 -0.048887003 0.025052607 -0.149081
-0.017116472 0.0055909893 0.07839236 0.03807584 0.05840536 0.107892536 -0.008527348 -0.019099964
-0.0012622316 0.034383606 -0.09208645 0.016394839 -0.03456995 0.019159982 0.047241658 -0.0058348645
-0.09801497 -0.048988953 0.016570248 0.02610645 0.0068983943 -0.07635591 -0.043309815 0.027505979
0.064734735 -0.024707027 -0.058325976 -0.019130249 0.08873733 0.051120184 -0.06876108 -0.051181458
0.042753197 0.05685336 -0.07066161 0.0036676908 0.052880555 0.07058084 0.013328349 -0.03466321
0.05405829 -0.021085544 0.03432693 -0.08046364 -0.011247175 -0.049095433 0.081272505 0.023782162
0.0019052525 -0.010611383 0.055774506 0.07717143 -0.052316323 0.042259183 -0.03758108 -0.0042253123
0.00959257 0.048060257 -0.05077321 -0.07831446 0.021452487 0.07576028 0.01810483 -0.08090594
-0.043529186 0.013582908 -0.0791746 -0.03247135 0.0084202215 -0.010187579 -0.07935037 0.010699543
-0.08382309 -0.04535602 0.061666995 0.055347145 0.0053702355 -0.08810915 -0.058119237 -0.08220908
-0.07054482 -0.086473614 0.047692556 0.015534588 0.024558295 0.06695191 0.008186964 -0.01098798
-0.060294047 0.0420717 -0.037416544 0.046905123 -0.034895692 -0.047648024 0.031575017 -0.08307243
-0.08105734 -0.061769243 0.022055496 -0.08218574 -0.06575427 0.03906417 0.07421275 0.02444982
-0.0873422 0.03037598 -0.08683405 0.01584022 0.051674727 -0.05386802 0.045095462 0.07821764
0.019840164 -0.062018126 -0.008973665 0.056424875 -0.07854023 0.0032378286 0.02621686 -0.03861103
-0.0030438846 0.04189898 -0.034508307 0.016088745 -0.010691024 0.053294685 0.06672529 0.055215884
0.059660748 -0.05137551 -0.038655765 0.0658997 0.014597071 0.02370784 0.06303056 0.0037645546
-0.004980827 -0.14853676 0.036430094 -0.11051352 -0.015318836 -0.0640343 -0.004053762 -0.021693878

lin1.bias f4 [84]
00000000: cb21 14bd de64 32bd 7f83 c83d 1009 b03d
00000010: db9a dbbc d73c 4a3d 5ec4 bfbb b8c1 f03c
00000020: 1cd1 b93d 9393 8f3c e1c4 53bd 0b4e b1bd
00000030: f990 f4ba 34ca 11bd f618 afbc 66fb abbd
00000040: 7d3a a93c fd2b 063c 5a4e 58bd 6a91 0abd
00000050: df1a 773d 6ee6 853d eff5 323d c578 f4bc
00000060: 48b8 04bc b927 28bd 312d b83d 01ff bb3c
00000070: 4679 9f3d 85ce 943d b455 87bd da99 73bc
00000080: 153a a83c 0dfc a5bd 52ec debc 7741 6d3d
00000090: e2db 643d a070 983b 0af4 0cbd 1ac9 8dbd
000000a0: 1ac8 9cbd 56c6 bc3c 5a4c 403d e53d 353d
000000b0: 474f 973d d579 0bbd a17f 143d ca15 bebd
000000c0: bc49 b63c 58e1 08bd 42f5 a73d 2cf2 9abd
000000d0: 3e27 c73d 1e38 0e3c 89df 7fbc 5652 94bd
000000e0: 019a 54bd 7760 abbc d160 7c3b a27b 8ebd
000000f0: 9a30 933d 6f65 6ebd 902c efbc 2483 d1bb
00000100: 0afa 873c aafb c0bd 17ec 93bb 5ab3 783c
00000110: f4c6 1b3c a5be 333d 57dc 8bbd 0fd2 4cbd
00000120: 706f b0bd 48eb 573d a62b 853b db5c 983d
00000130: c882 993d 560b 283d 7b45 073d 9e2d b03d
00000140: fcba 5cbd 62be 17bd ec00 55bd 0aa1 583c
-0.03616504 -0.043553226 0.09790706 0.085954785 -0.02680724 0.049374428 -0.005852266 0.029389247
0.090730876 0.017526424 -0.05170143 -0.08657464 -0.0018658928 -0.035593227 -0.021374207 -0.0839756
0.020657772 0.008189199 -0.052809097 -0.033830084 0.06032836 0.065380916 0.04369157 -0.029842744
-0.008100577 -0.041053507 0.089929946 0.022948744 0.07786803 0.07265953 -0.066081434 -0.014868224
0.020535508 -0.081047155 -0.027212296 0.05792376 0.05587376 0.004652098 -0.03441242 -0.06923123
-0.07655354 0.023043793 0.046947815 0.04424848 0.07388168 -0.034051735 0.03625453 -0.092815
0.022251956 -0.03341803 0.08201076 -0.07565722 0.09724282 0.008680372 -0.01561726 -0.07242267
-0.051904682 -0.020920021 0.0038509856 -0.06957175 0.071870044 -0.058202203 -0.029196054 -0.006393807
0.01659872 -0.09423001 -0.004514228 0.0151794795 0.009507883 0.043882985 -0.06829136 -0.050005015
-0.08615005 0.052714616 0.004064041 0.07439586 0.07495648 0.041026436 0.033025246 0.08602451
-0.05388926 -0.037046798 -0.052002832 0.013221988

lin2.weight f4 [10, 84]
00000000: dcee 5abd 3fb6 b9bd d42f dcbc 0e4b 91bd
00000010: c57e b83d 3a30 62bd d82e aabd cf4a 08bd
00000020: 8e16 11bd 4866 433d 3cf3 ed3b ac17 a8bc
00000030: e7fc c7bd 71a1 d7bb b974 acbd ad18 2f3d
00000040: bd33 3c3d 2b7f 873d 5faf 943b 9900 db3d
00000050: e4ea d83d 497e 95bd b35c 813d d1e1 42bd
00000060: e9f6 9ebb 7a3a bebd a295 7fbd e021 a9bd
00000070: f868 35bd cefd 5f3d 832e 873d 1c0e 71bd
00000080: 3c4b b3bd 0e03 0d3d e4b5 19bd d299 5dbc
00000090: fead 29bc 8b49 dabd 759e 9c3d dc22 33bc
000000a0: 9102 9ebd e09c 09bc ba89 2abd d5fd e53c
000000b0: 667a ff3c c569 a6bd d379 043d 8ecf 9a3d
000000c0: d5fc ebbc 3f9c cb3d f7a5 29bb 0efa 13bd
000000d0: c46c 8c3c 1d02 debb 5525 d6bd dedb 3abd
000000e0: 2c79 3e3c e704 7fbd 795b 8cbd 817f 9ebd
000000f0: d7ea c2bd bbce 113d 0610 4d3d 96c4 8b3c
00000100: ca09 063d 05db c13d 5013 67bd 1ccf 8bbd
00000110: 5b95 dd3b b754 1dbd d0ee c93d 3cba 34bd
00000120: 9616 07bd b844 a1bd b5d5 25bd 7c36 c5bd
00000130: 0b59 e1bc cff1 fc3c faef dc3c 8644 a1bd
00000140: 8b48 89bd 8f70 0fbd f3b7 87ba b3db 08bd
00000150: 55a1 10bd 8b27 8cbd 912e eb3d b5fa 68be
00000160: 7708 9d3d ab34 d8bd ed2e c7bd d804 373e
00000170: f3ea 863e c167 84be e0d5 b7bd af62 65bc
00000180: 75b0 763e 62c6 a43d e996 48bc a13a 553c
00000190: c650 2f3e 2d68 293d 7d2a c93d 61ed a53d
000001a0: 08b8 c0bc 1f4a 47bb 199e ec3b f986 e5bd
000001b0: cbac c7bd 5b65 e43c 551d 0d3e 48b6 b93d
000001c0: eb88 84bd 796b e4bd 7807 a9bd 1762 11bd
000001d0: 1d3e 073e ca64 103d 120d 4abd 7a27 ea3d
000001e0: b07f 673c 557c 663c 0a02 cb3d 048f 76bc
000001f0: a99d 9ebe eecc 38be 6bda 8b3e dbb6 2bbe
00000200: 5177 8cbd 8f3d 44bc 401d 56be 7cf2 c3bd
00000210: 3d86 87bd f250 1f3b 1572 873d 0e12 95bd
00000220: c38a c8ba cd28 18be b08f 50bc ce9c 09ba
00000230: 545e 0f3d 353c 273e d0bc 3bbb 3683 24bd
00000240: 7e49 64bc 98a4 21be baac 9d3d e955 a53c
00000250: ec36 cd3d da85 a33d 43e7 0dbe 1a36 8b3c
00000260: 4f34 913e 4ade c2bd a358 4abe 6b4a 183d
00000270: 3fd3 c43d cb53 8ebe 32d6 ac3e 9218 db3d
00000280: 4eae 85bd ddf1 193d 193f 2a3e bbfd 56be
00000290: 9d09 903c ca02 273c b2c8 c03d 912e b4bd
000002a0: 3cae 553e d968 343d 9b12 173d d8d1 5ebd
000002b0: 94aa f4bd d8b6 8dbd 6173 05be bd13 2dbd
000002c0: ed6f 23be 6900 9abc 4022 883d 441a b0bd
000002d0: db97 6f3e 7320 4c3e 0330 d03d 0f44 603d
000002e0: 46e9 94bd 1ba8 a63d 5cf2 d3bb 560c e63d
000002f0: 9b47 0c3e d287 d63d 45d6 373e 6193 473e
00000300: bb68 ef3c a08f a73d 4ffd 17be 9820 f5bc
00000310: c0ae a43d f799 7c3e 70ea 893c 7c31 ecbc
00000320: 365e 11be 0c40 703d 6d01 ccbd 6a5c 423d
00000330: abe8 203c e155 ba3e 3382 15bc 7e8a 783e
00000340: 942d 533a f3e1 5ebb 1058 833d f90e e1bd
00000350: 378e 31bd fcd3 0c3c ad29 3cbe 0d64 b9bc
00000360: f4c2 48bc 9c2a ac3e 7f53 04bd af81 1b3d
00000370: 1dc1 85be 4c10 0cbe 49c2 55be ec2c a1bd
00000380: 49a8 00be dc67 f53c bd2d dcbd 5a0f 0cbd
00000390: 6ee2 3cbe 5f7c 6ebd 3137 023d 2dad d3bd
000003a0: 7ae0 9c3c 9664 9fbb d790 06bd 00d8 0f3d
000003b0: e007 04bd d241 d3bd d59f 50be b40a ad3c
000003c0: 67c3 98bc 7342 89bd 000b 08bd e3f7 183e
000003d0: 3ab0 cfbd ac55 da3d 339d 44be f457 ffbc
000003e0: 5503 c93d f000 cbbd 112f 1fbe f4f4 abbd
000003f0: e543 bf3d 93b3 c73d f5ae ff3d 2a0c d53d
-0.05345045 -0.09067964 -0.026878275 -0.07094394 0.09008554 -0.055221774 -0.08309716 -0.033274468
-0.0354219 0.047704965 0.007261662 -0.0205191 -0.09765034 -0.0065805246 -0.084207006 0.042748142
0.04594778 0.06616052 0.0045375074 0.10693473 0.10591677 -0.072994776 0.06316509 -0.047578637
-0.0048512113 -0.09288497 -0.06239856 -0.08258414 -0.04428956 0.054685406 0.06600668 -0.058851346
-0.08754584 0.03442674 -0.03752698 -0.013525443 -0.010356424 -0.106585585 0.07647411 -0.010933604
-0.07715333 -0.008399218 -0.041635253 0.028075138 0.031186294 -0.08125643 0.032342743 0.07559119
-0.028807083 0.09941911 -0.0025886276 -0.036127143 0.017141707 -0.0067751543 -0.10456339 -0.045619838
0.011625569 -0.062260535 -0.068533845 -0.07739163 -0.095174484 0.035597544 0.05006411 0.017061513
0.03272418 0.09465603 -0.056414902 -0.06826612 0.0067621893 -0.03841087 0.09860003 -0.04412292
-0.032980524 -0.07874435 -0.04048701 -0.09629533 -0.02750828 0.030877022 0.026969898 -0.07874398
-0.067032896 -0.035019454 -0.0010354504 -0.033412647 -0.03531011 -0.0684348 0.11483491 -0.22751887
0.0766763 -0.105569206 -0.09725747 0.17872941 0.26351127 -0.25860408 -0.0897634 -0.014000579
0.2409075 0.08045651 -0.012243011 0.0130144665 0.17120656 0.041359115 0.09822557 0.08101917
-0.023525253 -0.003040917 0.007220995 -0.112073846 -0.097497545 0.027880361 0.1378072 0.090679705
-0.064714275 -0.11153311 -0.08253378 -0.035493936 0.13207288 0.03525237 -0.04932887 0.11433311
0.014129564 0.014067729 0.09912498 -0.015048746 -0.3097966 -0.18046924 0.27315077 -0.16768973
-0.06858695 -0.011977567 -0.20909595 -0.095677346 -0.06617401 0.0024309722 0.06613556 -0.07278834
-0.0015300143 -0.14859314 -0.01272957 -0.0005249501 0.035002068 0.16331561 -0.0028646477 -0.040164195
-0.0139335375 -0.15785444 0.076989606 0.020182567 0.10020241 0.079845145 -0.1385775 0.016993571
0.2836022 -0.095150545 -0.19760375 0.037180346 0.096106045 -0.27798304 0.33757168 0.10698046
-0.065273866 0.037584174 0.16625632 -0.20995228 0.017582709 0.010193536 0.094132796 -0.08797944
0.20867246 0.044045303 0.036882978 -0.05439934 -0.11946598 -0.0691964 -0.13032295 -0.042255152
-0.15960665 -0.018799024 0.06647158 -0.0859876 0.23397772 0.19934253 0.101654075 0.054752406
-0.07271056 0.08137532 -0.0064681005 0.11232822 0.1369919 0.104751244 0.17952831 0.19489814
0.029224744 0.08181691 -0.14842723 -0.029922768 0.080411434 0.24668108 0.016835421 -0.02883219
-0.14196095 0.05865483 -0.099612094 0.047451414 0.009821097 0.36393645 -0.00912528 0.2427158
0.0008055803 -0.0034009188 0.06413281 -0.10989184 -0.043348517 0.008595463 -0.18375273 -0.022630716
-0.012253512 0.33626258 -0.03230619 0.037965473 -0.26123896 -0.13678092 -0.20874895 -0.07869896
-0.12564196 0.02995675 -0.107509114 -0.034194328 -0.18445751 -0.05822408 0.031790916 -0.10335765
0.019150008 -0.0048642857 -0.032852974 0.035118103 -0.032234073 -0.103152886 -0.20373471 0.021123268
-0.018647863 -0.06702127 -0.033213615 0.14938311 -0.101410344 0.10660872 -0.19200592 -0.031169869
0.09815089 -0.09912288 -0.15545298 -0.083963305 0.09339122 0.09751048 0.12484542 0.10402711

lin2.bias f4 [10]
00000000: fb27 223c affa 3f3e 6121 d03d cd48 ddbd
00000010: c33a 02be 8dd5 a1bd 416a cfbd b229 163e
00000020: 2ce0 ec3d d80c 15bd
0.009897227 0.18747972 0.101626165 -0.10804901 -0.12717728 -0.0790206 -0.10127688 0.14664343
0.11566195 -0.036389202
